…
uracy: 0.8754
Result on Validation dataset :
0.5225337147712708 0.8753937482833862
Found the dense layer index -2
train min max values at FC layer:
-4.9781485 13.441981
Val min and max at FC layer :
-4.549865 11.982575
Model: "functional_1"
_________________________________________________________________
Layer (type)                 Output Shape              Param #   
=================================================================
input_1 (InputLayer)         [(None, 32, 32, 1)]       0         
_________________________________________________________________
cast_to_float32 (CastToFloat (None, 32, 32, 1)         0         
_________________________________________________________________
conv2d (Conv2D)              (None, 32, 32, 4)         36        
_________________________________________________________________
batch_normalization (BatchNo (None, 32, 32, 4)         16        
_________________________________________________________________
lambda (Lambda)              (None, 32, 32, 4)         0         
_________________________________________________________________
re_lu (ReLU)                 (None, 32, 32, 4)         0         
_________________________________________________________________
max_pooling2d (MaxPooling2D) (None, 16, 16, 4)         0         
_________________________________________________________________
conv2d_1 (Conv2D)            (None, 16, 16, 32)        1152      
_________________________________________________________________
batch_normalization_1 (Batch (None, 16, 16, 32)        128       
_________________________________________________________________
lambda_1 (Lambda)            (None, 16, 16, 32)        0         
_________________________________________________________________
re_lu_1 (ReLU)               (None, 16, 16, 32)        0         
_________________________________________________________________
conv2d_2 (Conv2D)            (None, 16, 16, 32)        9216      
_________________________________________________________________
batch_normalization_2 (Batch (None, 16, 16, 32)        128       
_________________________________________________________________
lambda_2 (Lambda)            (None, 16, 16, 32)        0         
_________________________________________________________________
re_lu_2 (ReLU)               (None, 16, 16, 32)        0         
_________________________________________________________________
max_pooling2d_1 (MaxPooling2 (None, 8, 8, 32)          0         
_________________________________________________________________
conv2d_3 (Conv2D)            (None, 8, 8, 16)          4608      
_________________________________________________________________
batch_normalization_3 (Batch (None, 8, 8, 16)          64        
_________________________________________________________________
lambda_3 (Lambda)            (None, 8, 8, 16)          0         
_________________________________________________________________
re_lu_3 (ReLU)               (None, 8, 8, 16)          0         
_________________________________________________________________
conv2d_4 (Conv2D)            (None, 8, 8, 32)          4608      
_________________________________________________________________
batch_normalization_4 (Batch (None, 8, 8, 32)          128       
_________________________________________________________________
lambda_4 (Lambda)            (None, 8, 8, 32)          0         
_________________________________________________________________
re_lu_4 (ReLU)               (None, 8, 8, 32)          0         
_________________________________________________________________
max_pooling2d_2 (MaxPooling2 (None, 4, 4, 32)          0         
_________________________________________________________________
conv2d_5 (Conv2D)            (None, 4, 4, 32)          9216      
_________________________________________________________________
batch_normalization_5 (Batch (None, 4, 4, 32)          128       
_________________________________________________________________
lambda_5 (Lambda)            (None, 4, 4, 32)          0         
_________________________________________________________________
re_lu_5 (ReLU)               (None, 4, 4, 32)          0         
_________________________________________________________________
conv2d_6 (Conv2D)            (None, 4, 4, 64)          18432     
_________________________________________________________________
batch_normalization_6 (Batch (None, 4, 4, 64)          256       
_________________________________________________________________
lambda_6 (Lambda)            (None, 4, 4, 64)          0         
_________________________________________________________________
re_lu_6 (ReLU)               (None, 4, 4, 64)          0         
_________________________________________________________________
max_pooling2d_3 (MaxPooling2 (None, 2, 2, 64)          0         
_________________________________________________________________
flatten (Flatten)            (None, 256)               0         
_________________________________________________________________
dropout (Dropout)            (None, 256)               0         
_________________________________________________________________
dense (Dense)                (None, 11)                2827      
_________________________________________________________________
lat_classification_head_1 (S (None, 11)                0         
=================================================================
Total params: 50,943
Trainable params: 50,519
Non-trainable params: 424
_________________________________________________________________
None
Keras model callback_model_loss_0.5225337147712708_acc_0.8753937482833862.h5 model in ./ak_model/split_hg/ directory is the final model
MODEL CONFIG : 
{'name': 'functional_1', 'lay
…
